trainednet.onnx (onnx, 782131 bytes, 26 tensors)

pretrained_net.conv1.weight f4 [32, 5, 3, 3]
0	0x3d483943	0.048882734
1	0xbe110266	-0.14161071
2	0x3d58561d	0.0528165
3	0x3cb3fecd	0.021972084
4	0xbd2d07b6	-0.04224368
5	0xbc5e35e2	-0.013562651
6	0x3e18b6e7	0.14913522
7	0x3e12b5c4	0.1432715
8	0x3c119e04	0.0088877715
9	0x3d0cdeca	0.034392156
10	0xbd5066cc	-0.050879285
11	0x3dbcbc40	0.09215593
12	0xbdb968cc	-0.090531915
13	0xbdfce9cc	-0.12349281
14	0x3d5eca46	0.05439212
15	0x3e045e5f	0.12926625
16	0x3cf03179	0.029320465
17	0x3e171678	0.14754665
18	0xbd6552a2	-0.055987008
19	0xbda7b9e4	-0.08189753
20	0xbc6b62c9	-0.014366814
21	0x3dd2eb24	0.10298756
22	0x3dfee5e5	0.12446193
23	0xbd8690dd	-0.06570599
24	0x3d5e70ee	0.054306917
25	0x3dbed67e	0.09318255
26	0x3d30788a	0.043083705
27	0x3daf5f42	0.08563091
28	0x3d84c350	0.064825654
29	0xbe07f882	-0.13278392
30	0x3c442d11	0.011973635
31	0xbd8e0ceb	-0.06936058
32	0xbdf96f92	-0.121794835
33	0x3dae52f4	0.08511916
34	0xbb958666	-0.0045631407
35	0x3d31f751	0.04344875
36	0x3da14c18	0.07875842
37	0x3d9b960c	0.075969785
38	0xbd7606ac	-0.060064957
39	0x3dafdc3f	0.085869305
40	0x3deca546	0.11554961
41	0xbd2b9121	-0.041886453
42	0x3dcc8fd5	0.09988371
43	0x3df98497	0.12183493
44	0x3ddd2018	0.10797137
45	0x3db04182	0.086062446
46	0xbddb9e45	-0.10723547
47	0x3d7d0cd3	0.06177981
48	0xbd9dc91d	-0.07704375
49	0x3d23c359	0.03998122
50	0x3df572d3	0.119847916
51	0x3cc98c5d	0.024603063
52	0xbd6cdf47	-0.05783012
53	0xbb8338e7	-0.004004586
54	0x3deae6ea	0.114698246
55	0x3e136473	0.14393787
56	0xbba95c36	-0.005168463
57	0x3e00438a	0.12525764
58	0x3de6b8c1	0.11265708
59	0xbd99b549	-0.075052805
60	0x3ddebef1	0.10876263
61	0x3d92fba9	0.071769066
62	0xbdb920b9	-0.090394445
63	0xbdfb59d5	-0.122729935
64	0xbdbb20c0	-0.09137106
65	0xbe0c64f1	-0.13710381
66	0xbdfcc870	-0.12342918
67	0xbd9f9d0e	-0.07793628
68	0x3d5fc607	0.054632213
69	0x3d653d70	0.055966794
70	0x3d0e3c11	0.034725253
71	0x3a228483	0.00061995554
72	0xbd90df85	-0.07073883
73	0xbcce7ff2	-0.025207493
74	0x3d923c30	0.07140386
75	0xbdad21d8	-0.08453721
76	0xbd9a03bc	-0.075202435
77	0xbe149467	-0.14509736
78	0x3c27af13	0.010234612
79	0xbe18a4ae	-0.1490657
80	0xbe0b2968	-0.13590014
81	0x3dbb6ce6	0.0915163
82	0x3d9ac814	0.07557693
83	0xbdf758c5	-0.12077478
84	0x3d18578e	0.037192874
85	0xbda68966	-0.081316754
86	0x3da96edc	0.08273098
87	0xbd609717	-0.05483159
88	0xbdd19bed	-0.102348186
89	0x3c9f8e83	0.019477135
90	0xbd9dd963	-0.07707479
91	0xbce246df	-0.027621685
92	0xbe0bc7c1	-0.13650419
93	0x3c88f047	0.016716136
94	0xbdf1f966	-0.11815147
95	0x3d63fc06	0.05566027
96	0xbddbb0cb	-0.1072708
97	0x3d84a844	0.064774066
98	0xbe040a12	-0.12894467
99	0x3dddf059	0.10836858
100	0xbe0b7043	-0.13617043
101	0xbd970401	-0.073738106
102	0x3dd835c7	0.10557132
103	0xbcbf3fb0	-0.023345798
104	0xbe0e1b72	-0.13877657
105	0x3e038da3	0.12846999
106	0xbe0e36ec	-0.13888139
107	0x3dedd391	0.11612619
108	0x3c50651f	0.012719422
109	0x3d690389	0.056888137
110	0xbc9bec2c	-0.019033514
111	0x3dceca63	0.10097196
112	0xbd555625	-0.052084107
113	0x3d92aeee	0.071622714
114	0xbd4aacf6	-0.049481355
115	0x3d37ad08	0.04484275
116	0x3db09a80	0.086232185
117	0xbd851eb2	-0.06499995
118	0xbd94d7df	-0.07267737
119	0x3db31e9b	0.08746072
120	0x3e0ef204	0.13959509
121	0xbd2c2e37	-0.04203626
122	0x3e12f6a1	0.14351894
123	0xbe1c52c3	-0.15265946
124	0xbdc2de1d	-0.09515021
125	0x3dc54d60	0.09633899
126	0xbda7e02f	-0.081970565
127	0xbd994a9d	-0.074849345
128	0x3e09dad5	0.13462384
129	0xbdc5f4bd	-0.09665821
130	0x3dda288f	0.10652267
131	0x3df18b68	0.11794168
132	0xbe0e1f3d	-0.13879104
133	0xbddf569a	-0.1090519
134	0xbd9457b6	-0.07243292
135	0x3da28054	0.07934633
136	0x3d6b69f3	0.057474088
137	0xbe147afc	-0.1450004
138	0xbe0a7ba4	-0.13523728
139	0x3cd6ec62	0.026235763
140	0x3e0fd9ca	0.14047924
141	0xbdeb95d2	-0.11503185
142	0x3d3bb7a7	0.04582944
143	0x3ced3b28	0.028958872
144	0xbdafaa33	-0.08577385
145	0xbd8def9f	-0.0693047
146	0xbd7618b5	-0.060082156
147	0xbd995c89	-0.07488353
148	0xbc0f521c	-0.008747604
149	0x3e0f18f5	0.13974364
150	0x3d6f106a	0.058365263
151	0xbdda4db8	-0.10659355
152	0x3d01b7a7	0.031669285
153	0xbd9f1c3b	-0.077690564
154	0xbd16543e	-0.036701433
155	0xbd9149f8	-0.070941865
156	0xbb9a4fdc	-0.004709227
157	0xbde3359f	-0.11094212
158	0xbb58f52d	-0.003310512
159	0x3cb54444	0.022127278
160	0xbddbb651	-0.107281335
161	0x3d8fb454	0.07016817
162	0xbd93a27c	-0.07208726
163	0xbdf0c87e	-0.11756991
164	0x3dc4078a	0.095717505
165	0xbcb343de	-0.021882948
166	0xbd5d1da5	-0.05398335
167	0x3dd1b3af	0.1023935
168	0x3ddffc22	0.109367624
169	0x3d24d0c7	0.040238168
170	0xbd85b0cc	-0.06527862
171	0xbdd8e952	-0.10591377
172	0xbc25e872	-0.01012622
173	0xbc33e8c0	-0.010980785
174	0xbdeaa0e3	-0.11456468
175	0xbdcf2d16	-0.10116021
176	0x3d9a8b5b	0.07546111
177	0x3bb5fa79	0.0055535403
178	0x3df97d43	0.12182095
179	0x3e0e1630	0.13875651
180	0xbe0686ff	-0.13137434
181	0xbdf02d70	-0.117274165
182	0xbdbc85eb	-0.0920523
183	0xbd949bb0	-0.072562575
184	0xbc3a3e9a	-0.011367464
185	0x3c12b531	0.008954332
186	0xbd4905c9	-0.049077783
187	0x3db59a90	0.08867371
188	0xbe09386f	-0.13400434
189	0xbdd8d54f	-0.105875604
190	0xbb56bb7d	-0.003276556
191	0xbcb6131d	-0.02222591
192	0xbda37e8b	-0.079831205
193	0x3d8369cc	0.064166635
194	0xbe0a1dbf	-0.1348791
195	0x3db12e59	0.08651418
196	0x3d2f3b52	0.04278118
197	0x3dd41ed4	0.103574425
198	0x3e192fbf	0.1495962
199	0x3d32886d	0.043587137
200	0xbddbde69	-0.10735781
201	0xbd8cb4ad	-0.06870399
202	0xbd92e806	-0.07173161
203	0x3d987dac	0.07445845
204	0x3cd90c81	0.02649522
205	0xbd89901d	-0.067169406
206	0x3e1a1a78	0.1504916
207	0xbdcba437	-0.09943431
208	0xbda49708	-0.080366194
209	0xbcafa3d5	-0.021440426
210	0x3dda43ed	0.10657487
211	0x3e0b6314	0.13612014
212	0xbd060192	-0.03271634
213	0x3e10fd48	0.14159119
214	0x3d9f7d0a	0.07787521
215	0xbd025bf0	-0.03182596
216	0xbdabd866	-0.08390884
217	0xbd8b3f52	-0.06799187
218	0xbbc9e160	-0.0061609
219	0xbda1c4a0	-0.07898831
220	0xbd8b2b89	-0.06795413
221	0xbdb71067	-0.089386754
222	0xbdcb4974	-0.099261194
223	0xbd9b1554	-0.075724274
224	0x3da309ea	0.07960875
225	0xbd6ff7c7	-0.05858591
226	0x3e0b1633	0.13582687
227	0x3d94dcaa	0.07268651
228	0xbc873220	-0.016503394
229	0xbbb392c9	-0.0054801446
230	0xbe0aa26a	-0.13538519
231	0xbe13ac4e	-0.14421198
232	0x3c8bf9ec	0.017086945
233	0xbdac2c0f	-0.08406841
234	0x3d03f335	0.032214362
235	0x3d96ff90	0.073729634
236	0xbe009cb8	-0.12559783
237	0xbcaba9dc	-0.020955019
238	0x3e00afc6	0.12567052
239	0x3e12d6f6	0.14339814
240	0x3dfd527f	0.123692505
241	0x3c19788e	0.009367121
242	0x3dd242b3	0.10266628
243	0x3da04004	0.0782471
244	0xbe14e89e	-0.14541861
245	0xbd9abd48	-0.07555634
246	0xbe0b09d9	-0.13577975
247	0xbda8cc7f	-0.082421295
248	0xbb46ba8a	-0.0030323588
249	0xbd978394	-0.073981434
250	0xbe127c93	-0.14305334
251	0x3d7170df	0.058945533
252	0xbd919299	-0.071080394
253	0xbe19ba37	-0.15012442
254	0x3db83f75	0.089964785
255	0x3d567f8b	0.05236773

pretrained_net.conv1.bias f4 [32]
0	0x3e0286df	0.12746762
1	0xbda43e1b	-0.08019658
2	0x3e010be5	0.12602194
3	0x3d548ac6	0.051890157
4	0x3dceb899	0.10093803
5	0xbc60a12f	-0.013710304
6	0xbc0c7f93	-0.008575338
7	0xbd402c75	-0.046917398
8	0x3e13e448	0.14442551
9	0x3da8644c	0.08222255
10	0xbcb829df	-0.022480903
11	0xbdf32a33	-0.11873283
12	0x3e084a0c	0.13309497
13	0x3c9c157b	0.019053211
14	0x3e1708b5	0.14749415
15	0xbdc428e3	-0.09578111
16	0xbda8cd2d	-0.08242259
17	0x3d84db3c	0.06487128
18	0x3c8da345	0.017289767
19	0xbd363b12	-0.044489928
20	0x3de1d7ef	0.11027514
21	0xbe1f04aa	-0.15529123
22	0x3dd67ca2	0.104729906
23	0x3dd7c4a7	0.10535555
24	0xbd748ca5	-0.05970444
25	0xbd8380c2	-0.06421043
26	0x3b1af20a	0.0023642802
27	0x3e01149d	0.1260552
28	0xbd9cca47	-0.07655769
29	0x3cf0c4c2	0.029390696
30	0x3db6b527	0.08921271
31	0x3e04e81b	0.12979166

pretrained_net.conv2.weight f4 [64, 32, 3, 3]
0	0xbc0c8d6f	-0.008578642
1	0xbc4a89d0	-0.012361959
2	0xbd2163e9	-0.039401922
3	0xbcd535f3	-0.026026702
4	0x3cf2c3ca	0.029634375
5	0xbd15c74f	-0.03656703
6	0xbce922b1	-0.028458925
7	0xbd47e3d0	-0.048801243
8	0x398b6af5	0.00026591835
9	0xb96b8377	-0.00022460321
10	0x3a0ce008	0.00053739594
11	0x3c9b36e2	0.018947069
12	0x3c3c7f99	0.011505031
13	0xbd048719	-0.0323554
14	0xbc6026ac	-0.013681095
15	0x3c422442	0.011849465
16	0x3d39574f	0.04524928
17	0x3d27114f	0.04078799
18	0xbd633868	-0.055473715
19	0xbc37ed14	-0.011225957
20	0x3d3e2ad2	0.046427555
21	0xbd0394b0	-0.03212422
22	0x3c7c6138	0.015404038
23	0xbcefc5e9	-0.029269176
24	0xbcce6a20	-0.025197089
25	0xbd3d651f	-0.046239015
26	0xbc27d3cb	-0.0102433665
27	0xbcc21a5b	-0.023694208
28	0x3d538c46	0.051647447
29	0xbd0aacd8	-0.033856243
30	0x3d0f0a25	0.034921784
31	0x3c1e668b	0.009668003
32	0x3ca2cc2c	0.019872747
33	0x3cfb973a	0.030711759
34	0xbd6c8247	-0.05774143
35	0xbd49e114	-0.049286917
36	0x3cd2efea	0.025749166
37	0xbd13e9ba	-0.03611157
38	0xbd4ed12e	-0.050492458
39	0xbd1c5db7	-0.03817531
40	0xbb51d7e9	-0.0032019562
41	0x3d57fa64	0.052729025
42	0x3c83a678	0.01607059
43	0x3d5751d2	0.052568264
44	0x3d285bdb	0.041103225
45	0x3d38921a	0.04506121
46	0x3d2cbf5e	0.04217469
47	0x3c791649	0.015203067
48	0xbbc00fc6	-0.0058612553
49	0xbcf20dec	-0.029547654
50	0xbc4551d4	-0.012043435
51	0x3d1a08c0	0.037606
52	0x3ba539a6	0.0050422726
53	0xbb08133b	-0.0020763415
54	0x3be61c78	0.0070224367
55	0x3d45444a	0.04816083
56	0xbd0c9bf3	-0.034328412
57	0x3b884713	0.0041588633
58	0x3ca2518c	0.019814275
59	0x3d2bafcf	0.04191571
60	0xbc254e83	-0.010089519
61	0x3cc3e17f	0.023911236
62	0x3ca9867e	0.020694014
63	0xbd1717bb	-0.036887866
64	0x3b93b08b	0.0045071295
65	0xbd0c87ac	-0.034309074
66	0x3ca07d05	0.019590864
67	0x3c22b3ae	0.009930534
68	0x3d032245	0.032015104
69	0xbcfddeda	-0.030990053
70	0x3c87f3c5	0.01659573
71	0xbcca56fa	-0.024699677
72	0x3d590073	0.052978944
73	0xbc3a19c4	-0.011358682
74	0x3d286b8a	0.041118182
75	0x3b8c03c9	0.004272912
76	0xbd4fbae5	-0.050715346
77	0x3d55d8a9	0.052208576
78	0xbd719f09	-0.05898956
79	0xbd216f91	-0.03941304
80	0xbc849bbe	-0.016187545
81	0xbce026d5	-0.027362267
82	0xbc805462	-0.015665237
83	0x3d25b3ca	0.040454663
84	0x3b9e1aef	0.004824988
85	0xbaf4c159	-0.0018673345
86	0xbcc3766a	-0.023860175
87	0x3d3ce912	0.04612071
88	0xbb776b6d	-0.003775324
89	0x3c3ffb18	0.01171758
90	0x3d00f761	0.03148592
91	0x3d03ef67	0.032210734
92	0x3d010435	0.031498153
93	0x3ccd373f	0.025050757
94	0xbd6782eb	-0.056521337
95	0x3d411665	0.047140498
96	0xbc7edb3b	-0.015555198
97	0xbd6611ab	-0.056169193
98	0x3d0a44f1	0.033757154
99	0xbd229318	-0.03969106
100	0xbd31f7ac	-0.04344909
101	0xbcc54f4f	-0.024085669
102	0xbd1df4e5	-0.038563628
103	0x3d0e202a	0.034698643
104	0xbc8a2e6d	-0.01686784
105	0xbceb8037	-0.028747661
106	0x3d07748f	0.033070143
107	0x3b828a54	0.003983775
108	0x3c685d93	0.014182466
109	0xbd6ec901	-0.05829716
110	0xbd52f4aa	-0.05150286
111	0xbc9275a6	-0.017878365
112	0xbbe6826b	-0.00703459
113	0x3d248d39	0.040173743
114	0xbbc8471c	-0.0061119925
115	0xbb1d608b	-0.0024013843
116	0x3cd9e523	0.026598519
117	0xbce779e7	-0.02825637
118	0x3d280767	0.041022684
119	0x3ceffebe	0.029296275
120	0xbc92d360	-0.017923057
121	0x3d5aaf24	0.053389683
122	0xbd4db92a	-0.050225414
123	0x3b945c56	0.004527609
124	0x3d20e7f0	0.039283693
125	0x3b8f9603	0.0043818965
126	0x3c87946b	0.016550263
127	0x3d609841	0.0548327
128	0x3d6a02d2	0.057131596
129	0x3c1b9236	0.009495309
130	0xbc348432	-0.011017846
131	0xbc151c3b	-0.009100969
132	0x3d3b33bd	0.04570364
133	0xbc7a40e6	-0.015274262
134	0xbcb68a52	-0.022282753
135	0x3cc0384a	0.02346434
136	0xbd57888f	-0.052620467
137	0xbd23e4e2	-0.0400132
138	0xbd4e2ac6	-0.05033376
139	0xbc24c971	-0.010057793
140	0xbc3cd40f	-0.011525168
141	0xbd126961	-0.03574503
142	0xbd3fa167	-0.046784785
143	0x3d3f2a42	0.04667116
144	0x3d5c73f1	0.053821508
145	0x3c0ae28e	0.008476866
146	0xba332364	-0.0006833582
147	0x3be9438d	0.0071186484
148	0x3cc74509	0.02432491
149	0xbcc5e008	-0.024154678
150	0x3d38e5c8	0.04514101
151	0xbcd3c4b5	-0.025850633
152	0xbc2c2c7a	-0.010508651
153	0xbc9a500c	-0.018836997
154	0x3d0963ab	0.033542316
155	0xbd22dd82	-0.039762028
156	0xbc335d0d	-0.010947478
157	0xbd4b8b0d	-0.049693156
158	0x3d27ae99	0.040937994
159	0x3cf1f3b5	0.029535154
160	0x3d6a861e	0.05725681
161	0xbcbc4f24	-0.022986956
162	0xbd4b37b3	-0.049613666
163	0xbd5a54e4	-0.053303614
164	0x3d0d71a0	0.03453219
165	0x3d4cc5ef	0.04999345
166	0xbc1c9a84	-0.009558324
167	0xbd5ee2c7	-0.05441549
168	0x3ce43d40	0.027861238
169	0x3c3951f5	0.011311044
170	0x3d223be6	0.039607905
171	0x3cd5421a	0.026032496
172	0x3c81d197	0.01584701
173	0xbd2c14fb	-0.042012196
174	0xbd3d3382	-0.0461917
175	0xbc1fbe05	-0.009749894
176	0xbcef7631	-0.029231163
177	0xbd374ba4	-0.04474987
178	0x3d32b3de	0.043628566
179	0xbc64bfdd	-0.013961759
180	0x3c33be35	0.010970642
181	0x3ce3b368	0.027795509
182	0xbd37cf66	-0.044875525
183	0x3d0e335a	0.03471694
184	0xbd274d02	-0.040844925
185	0x3d4a7be5	0.04943456
186	0x37910529	1.728775e-05
187	0x3d0cf0cb	0.034409326
188	0x3ca2696b	0.019825658
189	0x3d600d38	0.054700106
190	0x3bacec88	0.00527722
191	0x3cc793ef	0.024362532
192	0xbcbc7739	-0.023006069
193	0x3d122902	0.03568364
194	0x3c0f3245	0.0087400125
195	0xbd3bf1a2	-0.045884736
196	0xbc7d4d14	-0.015460271
197	0x3d160315	0.036624033
198	0x3cca7583	0.024714237
199	0xbd0b5004	-0.034011856
200	0xbd29dfa0	-0.04147303
201	0x3bcc5f29	0.00623693
202	0x3cb084d3	0.02154771
203	0x3cd325c0	0.025774837
204	0x3d63bb72	0.055598684
205	0xbd70a832	-0.058754154
206	0xbc69f172	-0.014278756
207	0xbd3de9cf	-0.046365555
208	0x3bbdadb7	0.0057885307
209	0xbd6e7a18	-0.058221906
210	0xbc70ac6b	-0.014689545
211	0x3d48530f	0.048907336
212	0xbc50932f	-0.012730404
213	0xbc55e0fb	-0.013054128
214	0xbcf5e485	-0.030016193
215	0xbd04ee6a	-0.032453932
216	0x3cbd4cee	0.023107972
217	0xbceba65a	-0.028765846
218	0xbcc58b65	-0.02411432
219	0x3d2ed20f	0.042680796
220	0xbd25426d	-0.04034655
221	0x3cfdf7d4	0.031001963
222	0xbd71e101	-0.05905247
223	0x3b91b384	0.0044464488
224	0x3d5f5cb4	0.054531768
225	0xbcbf4b77	-0.023351414
226	0x3d05e395	0.032687742
227	0x3b911b93	0.004428336
228	0x3d0adaa0	0.033899903
229	0x3d6f011a	0.05835066
230	0x3ca5641b	0.020189336
231	0x399bcc8d	0.00029716306
232	0x3d4d1a57	0.050073948
233	0xbd30b675	-0.043142755
234	0x3d5fa720	0.054602742
235	0xbcb43601	-0.021998407
236	0xbd5f7e9a	-0.054564096
237	0x3d092f05	0.033492107
238	0x3c80aecd	0.015708352
239	0x3ba22ae4	0.0049489606
240	0x3c4e71f0	0.012600407
241	0x3d5605e0	0.052251697
242	0xbd5aa6bf	-0.053381678
243	0xbd168c9e	-0.036755197
244	0xbd764b45	-0.060130376
245	0xbc9027cb	-0.0175971
246	0xbd2df088	-0.042465717
247	0x3cd2a4e2	0.025713388
248	0x3d4aa8ff	0.049477573
249	0x3bb54703	0.005532147
250	0x3d08c4b2	0.03339071
251	0x3d48ae6d	0.04899447
252	0xbb97bb4c	-0.004630482
253	0x3c7ea40c	0.0155420415
254	0xbd5a6d7f	-0.05332708
255	0xbd5c93f4	-0.053852037

pretrained_net.conv2.bias f4 [64]
0	0x3d2af644	0.041738763
1	0xbcf81941	-0.03028548
2	0x3c06707c	0.008205529
3	0x3d5a82f5	0.053347547
4	0x3d53aded	0.05167954
5	0xbd328b2b	-0.043589752
6	0xbcf369fb	-0.029713621
7	0x3d4804d4	0.04883273
8	0xbd112f15	-0.03544529
9	0xbd66681f	-0.05625164
10	0x3d078334	0.03308411
11	0x3b76e83c	0.0037675044
12	0xbd491036	-0.049087726
13	0xbcec9863	-0.028881257
14	0x3d2f2072	0.04275555
15	0xbd5f2845	-0.054481763
16	0xbd26bba2	-0.040706284
17	0x39d13e93	0.00039910208
18	0x3d32a639	0.043615554
19	0x3cf9908a	0.03046443
20	0xbcdfc1e9	-0.027314143
21	0x3c674411	0.014115349
22	0x3d08121a	0.033220388
23	0xbd0a7f8c	-0.033813044
24	0x3c3a6331	0.011376188
25	0xbc2bd35c	-0.010487404
26	0xbcc743e2	-0.024324361
27	0x3bbd0b25	0.005769151
28	0x3c581a5a	0.013189876
29	0x3d25ebcb	0.040508073
30	0x3c727f4b	0.014800857
31	0x3c721b56	0.014777025
32	0xbc3085b3	-0.010774064
33	0x3cc2ca01	0.023777964
34	0x3cc5c41a	0.02414136
35	0x3d6b929f	0.057512876
36	0xbd60cc64	-0.054882422
37	0x3ad74c8c	0.0016426011
38	0xbd3d5e9f	-0.046232816
39	0xbafe6fb2	-0.001941195
40	0xbb5d05f3	-0.003372547
41	0xbd5df0eb	-0.054184835
42	0xbbc334e1	-0.0059572314
43	0x3d06376e	0.032767706
44	0xbd49e267	-0.04928818
45	0x3cc80cc3	0.024420148
46	0xbb85350e	-0.0040651625
47	0xbcd891c1	-0.026436688
48	0x3d6bae1e	0.057539098
49	0xbce8952c	-0.028391443
50	0xbcbbb116	-0.02291159
51	0xbcbbb053	-0.022911226
52	0xbcf442ab	-0.029816946
53	0xbc181e2e	-0.009284539
54	0xbcc60086	-0.024170171
55	0xbb23a46e	-0.0024969834
56	0xbd392d11	-0.045208994
57	0xbcdda50d	-0.027056241
58	0xbc6fc47d	-0.014634249
59	0xbc012dfa	-0.007884497
60	0x3d51aaa5	0.05118813
61	0x3c795748	0.015218563
62	0x3c2e6062	0.010643097
63	0x3abb0659	0.001426886

pretrained_net.conv3.weight f4 [128, 64, 3, 3]
0	0xbd272ad3	-0.040812325
1	0xbb1d60a8	-0.002401391
2	0x3d05747e	0.0325818
3	0x3cbd16ac	0.0230821
4	0x3d0460f6	0.03231903
5	0x3c94059c	0.018069081
6	0x3c399dbb	0.01132911
7	0x3b89e1c6	0.0042078225
8	0xbcb4812e	-0.022034254
9	0x3936ab0a	0.0001742059
10	0x3cb4badd	0.02206176
11	0xbc60a2b9	-0.013710671
12	0xbd0d82c3	-0.034548532
13	0xbd29937f	-0.04140043
14	0x3bfbfb5b	0.007689876
15	0xbc752aa2	-0.014963778
16	0xbc6bea45	-0.014399116
17	0x3d19ee90	0.037581027
18	0x3d0b2518	0.033970922
19	0x3d167d10	0.036740363
20	0xbcb5586f	-0.022136895
21	0xbc82bba1	-0.015958609
22	0x3cdafd84	0.026732214
23	0x3d2229eb	0.039590757
24	0xbbaae5af	-0.0052153687
25	0xbcaf9f0d	-0.021438146
26	0x3c9335bc	0.017969958
27	0x3ce666ed	0.02812525
28	0x3d1fb3b8	0.038989753
29	0xbcb1da93	-0.02171067
30	0xbca0985a	-0.019603897
31	0xbbb33196	-0.0054685576
32	0xbb8b7fec	-0.004257193
33	0x3d2710e9	0.04078761
34	0x3b8ed28e	0.004358596
35	0xbbe76b3e	-0.007062345
36	0x3d144b68	0.036204726
37	0xbd27015c	-0.04077278
38	0xbd03db7b	-0.032191735
39	0xbc2e77d3	-0.0106486855
40	0x3cdb40d6	0.026764315
41	0xbc1d3dce	-0.009597255
42	0xbcafb5c1	-0.021448972
43	0xbc416ea4	-0.011806164
44	0x3c729102	0.01480508
45	0x3d11143b	0.035419684
46	0x3c9ce36f	0.019151418
47	0x3c2a6b8e	0.01040162
48	0x3cc8614d	0.02446046
49	0x3b182b10	0.0023219027
50	0xbbcb73b9	-0.0062088636
51	0x3d2218c8	0.039574414
52	0x3b111819	0.0022139607
53	0x3bb21695	0.005434821
54	0x3c83990d	0.016064191
55	0xbaf25805	-0.0018489367
56	0xbb303e58	-0.0026892629
57	0x3bb69ca2	0.0055728713
58	0x3cbe28a0	0.02321273
59	0xbca85e7d	-0.020552868
60	0xbc801667	-0.015635682
61	0x3c08a3f3	0.00833987
62	0x3c88ef46	0.016715657
63	0xbcc7ea75	-0.02440379
64	0x3d216b2b	0.039408844
65	0xbd205a13	-0.0391484
66	0x3cb6addd	0.022299701
67	0x3bc37a99	0.0059655425
68	0x3d03f553	0.03221638
69	0xbca2d652	-0.019877587
70	0x3d298f07	0.041396167
71	0xbd128027	-0.035766747
72	0x3c5154c1	0.012776555
73	0xbca26fda	-0.019828726
74	0x3cfb7619	0.030695962
75	0xbcf00c33	-0.029302692
76	0x3b161c74	0.0022905143
77	0x3cd88970	0.026432723
78	0x3c059971	0.008154259
79	0xbc2c6074	-0.010521043
80	0xbcfa7fee	-0.03057858
81	0xbca09ba1	-0.01960546
82	0x3c78bb25	0.0151813375
83	0xbbd88991	-0.006608196
84	0xbc7ff9a0	-0.01562348
85	0xbcc605b4	-0.024172641
86	0x39c8c877	0.0003829633
87	0x3b9d84ed	0.0048071058
88	0xbc8d3df9	-0.017241465
89	0x3d02be20	0.0319196
90	0xbc124bed	-0.008929235
91	0xbc89b525	-0.01681001
92	0xbd226c09	-0.03965381
93	0x3cadb8c7	0.021206273
94	0xbd17561d	-0.03694736
95	0xbc18f52a	-0.009335795
96	0xbcfe856c	-0.03106948
97	0x3c68d595	0.014211078
98	0x3c0d72ce	0.008633329
99	0x3ad3063c	0.001609988
100	0x3d06e934	0.032937244
101	0x3ce06b5b	0.027394941
102	0x3b3c4d6e	0.0028732675
103	0x3d28a47d	0.041172493
104	0x3b6392cc	0.003472495
105	0xbc5ad947	-0.013357467
106	0x3c90559e	0.01761895
107	0xbb88e6a8	-0.004177887
108	0xbb44532a	-0.0029956796
109	0x3d0153dc	0.031574115
110	0xbcf33edb	-0.029693058
111	0xbcbdcb06	-0.023168098
112	0xbce4c7e0	-0.02792734
113	0x3b2edabf	0.0026680676
114	0x3ced58d8	0.028973028
115	0x3c811ea2	0.015761677
116	0x3ba382cf	0.004989959
117	0xbc286ce9	-0.010279872
118	0x3a4be7d8	0.0007778383
119	0xbcfabaa5	-0.030606577
120	0xbc6d2280	-0.0144735575
121	0x3d28cacf	0.04120904
122	0x3cdb668e	0.0267823
123	0x3c0d96ce	0.008641912
124	0x3c908587	0.017641796
125	0xbc9782d2	-0.018494997
126	0x3bd2763b	0.0064227856
127	0xbc8ec206	-0.017426502
128	0x3d0ab334	0.033862308
129	0xbd1a4891	-0.03766686
130	0xbb5dc917	-0.0033841783
131	0x3c7b092e	0.015322013
132	0xbc6dfe17	-0.014525912
133	0xbcbfc910	-0.023411304
134	0x3bf80207	0.007568601
135	0x3cdaad5d	0.026693994
136	0xbca35748	-0.01993908
137	0x3cbf5659	0.023356603
138	0x3c79ec6b	0.01525412
139	0x3c9c25d2	0.019061003
140	0xbcdd26ce	-0.026996043
141	0x3c922a9d	0.017842585
142	0xbcbcf63a	-0.023066629
143	0x3d264354	0.040591553
144	0xbce00276	-0.027344923
145	0x3c300949	0.010744401
146	0x3a1f5f17	0.0006079538
147	0x3d175175	0.036942918
148	0x3c5d2a1f	0.013498812
149	0xba5b3f7b	-0.00083636463
150	0x3a69e0d1	0.0008921745
151	0x3cc55be0	0.024091661
152	0xba3fecdf	-0.00073213683
153	0x3c317734	0.010831643
154	0x3c8bb352	0.01705328
155	0x3c7b836e	0.0153511595
156	0x3d200459	0.039066646
157	0xbbc02ce0	-0.0058647245
158	0x3cb027d0	0.02150336
159	0xbc024bde	-0.007952658
160	0x3d113cc7	0.035458352
161	0x3c3c1489	0.011479505
162	0xbcbd3a96	-0.023099225
163	0xbc378acb	-0.011202524
164	0xbcfead51	-0.031088503
165	0xbc57c366	-0.013169145
166	0x3d1c4389	0.038150344
167	0xbbfce492	-0.0077176774
168	0x3d2519e1	0.040307883
169	0xbcb421bf	-0.021988748
170	0xbc962b9d	-0.018331343
171	0x3d288d57	0.041150417
172	0xbc29d341	-0.010365308
173	0x3cecc5ba	0.028902877
174	0xbd13c2dc	-0.036074504
175	0x3ce37e3e	0.027770158
176	0x3cdfb801	0.02730942
177	0x3c3e2884	0.011606339
178	0xbced9c82	-0.029005293
179	0xbc7c49c2	-0.015398445
180	0x3ba6ea70	0.005093865
181	0xbb909c19	-0.0044131395
182	0x3d0a30be	0.03373789
183	0xbc84b5f9	-0.016200053
184	0xbc9ea6e3	-0.019366687
185	0xbd1bd0fa	-0.038041092
186	0xbc9e6684	-0.019335993
187	0xbd085b0b	-0.03328995
188	0x3c48e7ed	0.012262327
189	0xbce27cf0	-0.027647465
190	0x3d20bdde	0.03924357
191	0x3d113e37	0.035459723
192	0xbca619cc	-0.020275973
193	0xbcb76319	-0.02238612
194	0x3d1ce89c	0.03830777
195	0xbb7fcece	-0.0039033177
196	0xbc0347bc	-0.008012708
197	0xbbf4abac	-0.007466754
198	0xbc1c378b	-0.009534727
199	0x3d028441	0.03186441
200	0xbc39080e	-0.011293424
201	0xbb3433ad	-0.0027496621
202	0xbcccbd80	-0.024992704
203	0xbd0cb260	-0.0343498
204	0xbd0ffa6c	-0.03515093
205	0x3ce066b9	0.027392732
206	0xbc0f9b8d	-0.008765114
207	0xbb0fa772	-0.0021919874
208	0xbcc59c57	-0.0241224
209	0x3b1aef45	0.002364115
210	0xbc500390	-0.012696162
211	0x3a127110	0.00055863056
212	0x3d1d15f5	0.038351018
213	0xbcdafef3	-0.026732897
214	0x3ca532dd	0.020165855
215	0xbb9da697	-0.004811119
216	0xbc96a7bd	-0.01839053
217	0x3ce0ecd2	0.027456675
218	0x3d262fa8	0.040572792
219	0x35f20eb5	1.8034685e-06
220	0x3d03f96c	0.03222029
221	0xbc60d0f3	-0.013721692
222	0xbb53156a	-0.0032208809
223	0x3c707a2c	0.014677566
224	0x3cbae583	0.022814518
225	0xbc479022	-0.01218036
226	0xbc450ca8	-0.012026943
227	0x3d209543	0.039204847
228	0x3c044a74	0.008074392
229	0xbc676b15	-0.014124651
230	0x3ce5b00a	0.028038044
231	0xbc897467	-0.016779138
232	0x3b763b9f	0.0037572158
233	0xbd0af4f7	-0.033925023
234	0xbcabbd65	-0.020964334
235	0xbca1c68b	-0.019747993
236	0xbc51279c	-0.012765791
237	0xbc4533ee	-0.012036307
238	0x3c9cb0f0	0.01912734
239	0xbcc8fcf8	-0.024534687
240	0x3b5c7699	0.0033640026
241	0x3cc41968	0.023937896
242	0xbc73aa38	-0.014872126
243	0x3ccaf188	0.024773374
244	0x3c90ca02	0.01767445
245	0xbcc78a22	-0.024357859
246	0xbd005b03	-0.031336796
247	0xbd028832	-0.031868167
248	0xbcd7fc73	-0.026365494
249	0x3c976b1e	0.018483695
250	0x3ccaf8d2	0.02477685
251	0x3c1c8dda	0.009555304
252	0xbb9f28d4	-0.004857162
253	0xbc9d8c0f	-0.019231824
254	0xbd189557	-0.037251797
255	0xbc9486d6	-0.018130701

pretrained_net.conv3.bias f4 [128]
0	0xbc8df495	-0.01732854
1	0x3a7ca75c	0.00096379756
2	0xbce9a1f9	-0.028519617
3	0x3cba702c	0.022758566
4	0xbcc11858	-0.023571178
5	0xbc3d14d6	-0.011540612
6	0xbd01a506	-0.03165152
7	0xbc9712e9	-0.018441634
8	0x3cf1c16a	0.029511172
9	0x3d0adb83	0.03390075
10	0x3caa39c1	0.020779492
11	0x3c84ba94	0.016202249
12	0xba3e493f	-0.00072588393
13	0xbcca566c	-0.024699412
14	0xbcb50680	-0.022097826
15	0x3c4e558d	0.012593639
16	0x3c9674f2	0.01836631
17	0x3a863493	0.0010239057
18	0xbd174579	-0.03693149
19	0xbc1dcb97	-0.009631059
20	0x3be7bd7d	0.0070721493
21	0xbccb9842	-0.024852876
22	0x3cc7477b	0.024326077
23	0x3c3636aa	0.011121431
24	0xbcfb2557	-0.030657453
25	0x3d06c5c6	0.032903455
26	0x3cd85752	0.026408825
27	0xbd0f9f7f	-0.035064217
28	0x3d189a50	0.03725654
29	0xbb17a6b7	-0.0023140141
30	0x3bdcc93e	0.006737857
31	0x3cf8cafe	0.030370232
32	0xbcf2e1ab	-0.029648622
33	0x3cf32816	0.0296822
34	0x3ce574e6	0.028009843
35	0x3d2ca191	0.04214627
36	0xbc92e90f	-0.017933397
37	0xbceac581	-0.02865863
38	0x3cc80bcd	0.02441969
39	0x3be43300	0.0069640875
40	0x3c1383ca	0.009003589
41	0x3cc0bd8a	0.02352788
42	0x3c3b26dc	0.011422839
43	0x3cd10056	0.025512855
44	0x3d04537c	0.03230618
45	0xbce8a292	-0.028397832
46	0x3cb89258	0.02253072
47	0xbcbf06d9	-0.023318695
48	0x3d0e96c0	0.034811735
49	0x3cc43cf0	0.023954839
50	0xbcb6d2f3	-0.022317385
51	0x3d1f881f	0.038948175
52	0x3c8d09d8	0.017216608
53	0xb64ca554	-3.0494602e-06
54	0xbceca4ba	-0.028887141
55	0xbd001611	-0.031271044
56	0x3c50f6df	0.012754171
57	0x3bd8929a	0.006609273
58	0x3bd030ee	0.006353489
59	0xbbcb1b0b	-0.006198292
60	0x3d0224d0	0.03177339
61	0xbd18d6fa	-0.037314393
62	0xba940a4d	-0.0011294574
63	0xbc96d9ed	-0.018414462
64	0xbafae772	-0.0019142462
65	0x3bd81ce1	0.0065952395
66	0x3a8f9b92	0.0010956398
67	0xbc9de007	-0.019271864
68	0xbca70527	-0.020388199
69	0xbd063bf6	-0.032772027
70	0x3c4b5fce	0.012412978
71	0x3c584a7b	0.013201351
72	0x3c2be117	0.010490677
73	0xbd0c3b74	-0.034236386
74	0xbcccecd1	-0.025015267
75	0xbd21aaa7	-0.039469387
76	0xbcc07796	-0.023494523
77	0xbd1fd2d0	-0.039019406
78	0x3d140152	0.03613407
79	0x3cbc5874	0.022991396
80	0x3cba8fbe	0.02277362
81	0xbc056682	-0.008142116
82	0x3c81215a	0.015762974
83	0x3cddc624	0.02707202
84	0x3c962972	0.01833031
85	0xbbc2cacc	-0.0059445854
86	0x3ca48f4f	0.020087866
87	0xbd0a4192	-0.03375394
88	0xbd27a54b	-0.04092912
89	0xbb39022d	-0.0028230057
90	0xbce45609	-0.027873056
91	0xbb65c9aa	-0.0035062828
92	0x3ce7afb0	0.028282017
93	0x3d24000c	0.040039107
94	0xbd02e8e8	-0.031960398
95	0x3b823ec8	0.0039747693
96	0xbcc871e9	-0.02446838
97	0x3cc15278	0.023598894
98	0xbc7ad1f9	-0.01530885
99	0x3d07a486	0.033115886
100	0xbd171872	-0.036888547
101	0x394213fa	0.00018508724
102	0x3ce86cbf	0.028372167
103	0xbd218298	-0.039431185
104	0x3bbd4dc1	0.0057770913
105	0x3bb9eec1	0.0056742136
106	0x3ccf1f78	0.02528356
107	0xbd20854b	-0.039189618
108	0x3d292a05	0.04129984
109	0x3cd8d075	0.026466588
110	0xbcf74223	-0.030182904
111	0x3b8e50e0	0.004343137
112	0x3d0798af	0.033104595
113	0xbcb8755d	-0.0225169
114	0x3d1507a1	0.03638423
115	0x3c8e1cd3	0.017347729
116	0x3c0ab8b6	0.00846689
117	0x3c0a28e0	0.008432597
118	0xbcaa67bd	-0.02080142
119	0x3ccc0c3d	0.02490818
120	0x3cdcc3a1	0.026948752
121	0xbc31bb61	-0.010847897
122	0xbcf29f03	-0.029616838
123	0xbd202be6	-0.039104365
124	0x3c9c96dd	0.019114906
125	0x3bc57142	0.0060254643
126	0xbcb8f5bd	-0.022578115
127	0xbca944e7	-0.020662738

deconv1.weight f4 [128, 64, 3, 3]
0	0xbbb59865	-0.0055418485
1	0x3d0f6c63	0.035015475
2	0x3be7bd06	0.007072094
3	0xbc17378f	-0.009229555
4	0xbc2539af	-0.010084554
5	0xbc2b145b	-0.010441865
6	0xbc9bee41	-0.019034507
7	0xbc38f29d	-0.011288312
8	0xbc0bdba4	-0.008536253
9	0x3c87ea9e	0.016591366
10	0xbc7b2392	-0.015328305
11	0xbc270f68	-0.010196544
12	0x3b48a17b	0.0030613828
13	0x3b828ef9	0.003984329
14	0x3bbe489b	0.005806995
15	0xbd0b2f27	-0.033980515
16	0x3bbc21ea	0.0057413476
17	0xbab06dbc	-0.0013460438
18	0x3cc1d67b	0.023661843
19	0xba8fa4ee	-0.0010959187
20	0xbcab4772	-0.020908091
21	0xbc27cae0	-0.01024124
22	0x3d1945b4	0.03741999
23	0x3c9fe329	0.019517498
24	0x3ce6adaf	0.02815899
25	0x3d049a24	0.032373562
26	0x3bba7d11	0.0056911786
27	0xbcf13cac	-0.029447876
28	0xbd173f9d	-0.0369259
29	0xbc970efc	-0.018439762
30	0x3d1bb6ed	0.03801625
31	0x3c260b70	0.010134563
32	0x3b541d2a	0.0032366016
33	0xbcc02d47	-0.02345909
34	0xbcb2f720	-0.021846354
35	0xbb347bc4	-0.002753959
36	0x3cb86e45	0.022513518
37	0xbce1f263	-0.0275814
38	0xbd0a9f58	-0.03384337
39	0xbd0570b8	-0.0325782
40	0x3d1f3a76	0.038874112
41	0xbbd4e073	-0.006496483
42	0x3ce430f0	0.027855366
43	0xbc3b818d	-0.0114444615
44	0xbbf60b40	-0.0075086653
45	0xbce28e46	-0.027655732
46	0x3d086f24	0.033309117
47	0x3c91242a	0.01771744
48	0xbd1b6878	-0.037941426
49	0xbb06d841	-0.0020575675
50	0xbb2396b3	-0.002496165
51	0xbd0893f5	-0.033344228
52	0x3bbd1121	0.005769864
53	0xbd04f2a0	-0.032457948
54	0x3d081e06	0.033231758
55	0xbc8c1de3	-0.017104095
56	0x3bed52f4	0.007242555
57	0xbcf0d085	-0.029396305
58	0x3d13c53b	0.036076766
59	0xbc3dbbbd	-0.011580405
60	0x3d11693c	0.03550075
61	0x3c5c864e	0.013459755
62	0xbcb4b7ab	-0.022060236
63	0xbd10490f	-0.035225924
64	0x3d20c4ae	0.03925007
65	0x3c453608	0.012036808
66	0xbc4c7482	-0.0124789495
67	0xbd0bb498	-0.034107774
68	0xbae57872	-0.0017507209
69	0xbc17fa03	-0.009275916
70	0x3d0ad202	0.033891685
71	0x3d11284c	0.03543882
72	0x3cbcdcc9	0.023054497
73	0x3a916d30	0.0011095162
74	0x3b9a66e4	0.0047119725
75	0xbc1688af	-0.009187861
76	0x3d0e3273	0.03471608
77	0xbc5d90ce	-0.013523294
78	0xbc6d5580	-0.014485717
79	0x3d0ea636	0.03482648
80	0x3d125e2e	0.035734348
81	0x3c58fb13	0.0132434545
82	0x3d2a9c83	0.041653167
83	0xbca27ae1	-0.019833984
84	0xbcf9cb07	-0.030492319
85	0xbccfecf8	-0.02538155
86	0x3cbdadc6	0.02315415
87	0x3cef91be	0.0292443
88	0x3d0880c9	0.033325944
89	0x3bde33ad	0.0067810626
90	0xbd00b5d6	-0.031423412
91	0xbc1f6d70	-0.009730682
92	0xbc51d341	-0.0128067145
93	0x3aac47a3	0.0013143908
94	0x3a857512	0.0010181984
95	0xbc6f0761	-0.014589162
96	0x3c1e14a2	0.009648474
97	0xbc55c24d	-0.013046813
98	0xbcf60bca	-0.030034918
99	0x3c2fd98b	0.010733019
100	0xbcbce16d	-0.02305671
101	0xbc4bb3d1	-0.012433008
102	0x3d20f15d	0.039292682
103	0xbd1b5bf5	-0.037929494
104	0xbcddcfa5	-0.027076552
105	0x3c4e329f	0.012585311
106	0xbceb61df	-0.028733192
107	0xbd27ff45	-0.04101493
108	0xbcccdd2c	-0.025007807
109	0xbc986e95	-0.018607417
110	0x3cff722d	0.031182373
111	0x3c722bc1	0.01478094
112	0xbce1c34e	-0.027558949
113	0x3cd609e8	0.02612777
114	0x3b98f13a	0.0046674283
115	0xbc7b34c0	-0.015332401
116	0xbb6b6593	-0.0035918697
117	0x3c2e7713	0.010648507
118	0xbb7e25b3	-0.0038779795
119	0xbc4b917c	-0.012424823
120	0xbd030103	-0.031983387
121	0x3d0d9ee2	0.03457535
122	0xbc90e6b3	-0.017688131
123	0x3d0c2f33	0.0342247
124	0xbc445454	-0.011982996
125	0xbca65405	-0.020303736
126	0xbcd3c201	-0.025849344
127	0x3c8cdb9e	0.017194565
128	0xbd01b44f	-0.031666096
129	0x3d0cd6a9	0.034384403
130	0xbcc0ca30	-0.02353391
131	0x3cc3f1b4	0.023918964
132	0xbb9bf32e	-0.004759214
133	0xbc5387ab	-0.012910764
134	0x3d289049	0.041153226
135	0xbbc62d7e	-0.0060479036
136	0xbbc4e68c	-0.0060089286
137	0xbd2830f7	-0.04106232
138	0xbc3dfde0	-0.011596173
139	0xbd0e109c	-0.03468381
140	0xbcd1fa91	-0.025632175
141	0x3c64964c	0.013951849
142	0x3d211353	0.03932507
143	0x3c9474b5	0.018122056
144	0xbd02727c	-0.031847462
145	0xbba460c6	-0.005016419
146	0xbaa97b1c	-0.0012930366
147	0xbd0ac1d0	-0.03387624
148	0xbc94e90e	-0.018177535
149	0x3cd0a799	0.025470542
150	0xbc7fdeb6	-0.015617063
151	0x3c6c12ca	0.014408777
152	0x3c3b0512	0.011414783
153	0xbd0a7888	-0.033806354
154	0xbce67bd3	-0.028135216
155	0x3c13797f	0.009001135
156	0xbb85d027	-0.0040836516
157	0xbcb0c172	-0.021576617
158	0xbb745f9d	-0.0037288435
159	0x3c2495e9	0.010045507
160	0xbc7ff9fc	-0.015623566
161	0x3c87d186	0.0165794
162	0x3d088a07	0.033334758
163	0x3c97bf6d	0.018523896
164	0x3d040ed7	0.032240715
165	0xbca82ed0	-0.020530134
166	0xbc31015a	-0.010803545
167	0xbcf0c4ef	-0.02939078
168	0x3b08af18	0.0020856317
169	0x3c93e775	0.018054703
170	0x3ae3ce32	0.0017380177
171	0x3a8111aa	0.0009847183
172	0xbd06d30b	-0.03291611
173	0x3c936859	0.017994093
174	0x3cd28ecb	0.025702855
175	0x3d23125f	0.039812442
176	0x3d155a19	0.036462877
177	0x3c9e3f92	0.019317422
178	0x3cf926fc	0.030414097
179	0xbb5d77ee	-0.0033793407
180	0xbd235d06	-0.039883636
181	0x3b37672f	0.0027985086
182	0xbd089c06	-0.03335192
183	0xbc747403	-0.0149202375
184	0xbd174383	-0.03692962
185	0x3a6bd945	0.0008996914
186	0x3cbcd6d8	0.023051664
187	0xbcba8701	-0.022769453
188	0xbd1d2674	-0.03836675
189	0x3a1da1e2	0.0006013197
190	0x3ca43235	0.020043472
191	0xbcaff1a4	-0.021477528
192	0x3c37dc98	0.011222027
193	0xbd235ec4	-0.039885297
194	0x3cc882ef	0.024476497
195	0x3c49b1ac	0.012310427
196	0xbc859974	-0.016308524
197	0x3d023007	0.031784084
198	0x3b7ea56d	0.0038855926
199	0x3c906e0a	0.017630596
200	0x3cc05a4c	0.023480557
201	0x3ccd8fc5	0.025092969
202	0xbc1a0242	-0.009399952
203	0xbcba3551	-0.022730501
204	0xb9d09b17	-0.00039788403
205	0xbc3f0590	-0.011659041
206	0x3c89457e	0.01675677
207	0x3bf16120	0.0073663145
208	0xba6bf041	-0.0009000339
209	0xbcf50d1d	-0.02991348
210	0x3cd0186c	0.02540227
211	0x3c1664ed	0.009179336
212	0xbd07018d	-0.032960463
213	0xbcef789d	-0.029232318
214	0xbb8ec24a	-0.004356657
215	0xbac6a2c5	-0.001515471
216	0xbc38b3f6	-0.011273375
217	0x3d1dcaac	0.03852336
218	0xbc21dced	-0.009879333
219	0xbb78c810	-0.0037961043
220	0x3ca24eb5	0.019812921
221	0xbc958dd5	-0.018256107
222	0x3b54524a	0.003239768
223	0xbd2292b6	-0.039690696
224	0xbccf0be1	-0.025274219
225	0x3c25d5ee	0.010121806
226	0xbcd96575	-0.026537636
227	0x3cfc9421	0.030832352
228	0xbc2db292	-0.0106016565
229	0x3d27536b	0.040851038
230	0xbd24142b	-0.040058296
231	0x3cfca6b5	0.03084121
232	0x3c22eff4	0.009944905
233	0x3cbd6062	0.023117248
234	0xb85167c2	-4.9926115e-05
235	0xbca78d9c	-0.020453267
236	0xbb01d36f	-0.0019809862
237	0x3cf2e8a3	0.029651945
238	0x3cd02188	0.025406614
239	0x3c8bc541	0.017061831
240	0x3c8ef026	0.017448496
241	0x3cd64bc6	0.026159178
242	0xbca49880	-0.020092249
243	0xbd0f777e	-0.035026066
244	0x3c2ce8da	0.010553563
245	0xbcabc130	-0.020966142
246	0x3cc1beb5	0.023650507
247	0xbd01ea3b	-0.03171752
248	0xbd2619fc	-0.040552124
249	0x3b2d9aee	0.002649005
250	0xbd2082bb	-0.039187174
251	0xbc32dde5	-0.010917162
252	0xba8b6a10	-0.0010636467
253	0xbc83848c	-0.016054414
254	0x3cdceab5	0.026967386
255	0xbb7ecb59	-0.003887853

deconv1.bias f4 [64]
0	0x3d0a08a1	0.033699635
1	0x3c8cbcae	0.017179813
2	0x3c565cb0	0.013083622
3	0x3b9a473c	0.004708199
4	0x3c2758bc	0.010214027
5	0x3c89cf2c	0.01682242
6	0xbcda9829	-0.026683884
7	0xbc4a3afc	-0.0123431645
8	0x3cbac21c	0.022797637
9	0x3c92039f	0.017823992
10	0x3d22304d	0.039596844
11	0xbcd1a870	-0.025593013
12	0x3cb4c549	0.02206673
13	0xbcf3d7d3	-0.029765999
14	0xbca966cb	-0.020678898
15	0x3d1ac556	0.03778585
16	0x3c270a4f	0.010195329
17	0x3c87d160	0.01657933
18	0xbc90126c	-0.01758691
19	0xbc81faf7	-0.01586674
20	0x3d2cc831	0.042183105
21	0xbc427bd8	-0.011870347
22	0xbc8ab342	-0.01693118
23	0xbd17a492	-0.03702218
24	0x3c0d738f	0.008633508
25	0xbc92dcc5	-0.017927537
26	0x3cdf241e	0.027238902
27	0xba1662f2	-0.000573679
28	0x3cb7717b	0.022392979
29	0x3cece9c7	0.028920067
30	0xbd0c1b7d	-0.034205902
31	0xbd1e115b	-0.03859077
32	0x3a2cde3b	0.0006594394
33	0xbca06cd6	-0.019583147
34	0x3b6ca3d7	0.0036108398
35	0x3cab8981	0.02093959
36	0x3d174a26	0.036935948
37	0x3d2f39af	0.04277962
38	0xbbfef068	-0.0077801235
39	0x3cda5820	0.02665335
40	0x3cc174a3	0.023615187
41	0xbc134355	-0.008988221
42	0x3d014428	0.03155914
43	0x3ade9f6f	0.0016984771
44	0xbbaf46ed	-0.005349031
45	0x3b1fca34	0.0024381997
46	0xbd24f78b	-0.040275138
47	0xbd2283d0	-0.039676487
48	0x3cd94cab	0.026525816
49	0xbcb0cb0f	-0.0215812
50	0xbc87dddf	-0.016585289
51	0xbc331022	-0.010929139
52	0x3c02e7aa	0.007989803
53	0xbb25a518	-0.0025275405
54	0x3cb5e24e	0.022202637
55	0x3c654fdc	0.013996091
56	0xbcd580ec	-0.026062451
57	0xbc0d1fdc	-0.008613553
58	0xbcdfd81b	-0.027324727
59	0x3c4be463	0.012444588
60	0x3caf2db5	0.0213841
61	0x3c6ce3b3	0.014458585
62	0x3cb3659a	0.021899033
63	0xbd26b814	-0.040702894

bn1.weight f4 [64]
0	0x3f8021fe	1.0010374
1	0x3f7fd605	0.9993594
2	0x3f7ff29d	0.99979573
3	0x3f809617	1.0045804
4	0x3f7fb4e7	0.9988541
5	0x3f7fb186	0.99880254
6	0x3f800152	1.0000403
7	0x3f80010e	1.0000322
8	0x3f8004ea	1.00015
9	0x3f7ffc04	0.9999392
10	0x3f7fae0b	0.99874943
11	0x3f7f9e3e	0.99850833
12	0x3f7fba1a	0.99893343
13	0x3f7fe198	0.99953604
14	0x3f80012b	1.0000356
15	0x3f800f48	1.0004663
16	0x3f7f9649	0.9983869
17	0x3f7fb932	0.9989196
18	0x3f8000ae	1.0000207
19	0x3f7fd324	0.9993155
20	0x3f7f948a	0.9983603
21	0x3f7fb3a1	0.99883467
22	0x3f7fe931	0.99965197
23	0x3f7fcea0	0.9992466
24	0x3f7f8330	0.9980955
25	0x3f7ffd2b	0.9999568
26	0x3f7fe5e3	0.99960154
27	0x3f7fc787	0.9991383
28	0x3f800513	1.0001549
29	0x3f7fcfe6	0.999266
30	0x3f7f9da8	0.9984994
31	0x3f7ff7e8	0.9998765
32	0x3f7f936d	0.9983433
33	0x3f7ff357	0.9998068
34	0x3f8003fc	1.0001216
35	0x3f7ffc1d	0.9999407
36	0x3f7fa81e	0.998659
37	0x3f7fece6	0.99970853
38	0x3f802779	1.0012046
39	0x3f7fb708	0.9988866
40	0x3f7fc72a	0.99913275
41	0x3f7fda36	0.9994234
42	0x3f7f8043	0.99805087
43	0x3f7fc0aa	0.9990336
44	0x3f7fe99c	0.99965835
45	0x3f8000aa	1.0000203
46	0x3f801068	1.0005007
47	0x3f7fea62	0.99967015
48	0x3f80004a	1.0000088
49	0x3f7fc65a	0.99912035
50	0x3f7fedd4	0.9997227
51	0x3f800fc1	1.0004808
52	0x3f800100	1.0000305
53	0x3f7f866c	0.99814487
54	0x3f7fb75f	0.9988918
55	0x3f802b26	1.0013168
56	0x3f7fc38a	0.99907744
57	0x3f7fa9f1	0.99868685
58	0x3f7f706b	0.9978091
59	0x3f80280d	1.0012223
60	0x3f7fe82b	0.99963635
61	0x3f800114	1.0000329
62	0x3f801f33	1.0009521
63	0x3f805845	1.0026938

bn1.bias f4 [64]
0	0xb976557b	-0.00023492232
1	0xbacb8743	-0.0015527982
2	0xba1cb0c8	-0.000597727
3	0x3a729cb8	0.00092549203
4	0x37a8a0d9	2.0102061e-05
5	0xba13d78d	-0.00056397245
6	0x3a5859e0	0.00082531385
7	0xb9eafd68	-0.0004482076
8	0xb8b61bfb	-8.683648e-05
9	0xb9a5e7d8	-0.0003164399
10	0xb8e5a4cb	-0.00010950266
11	0xba985880	-0.0011623055
12	0xb87c5494	-6.016025e-05
13	0xba1120a3	-0.0005536174
14	0xb9e352b3	-0.0004335843
15	0xba834a83	-0.0010016713
16	0xb8b83128	-8.78296e-05
17	0x3a612068	0.0008587898
18	0xba42efe5	-0.000743626
19	0x38d143ce	9.978526e-05
20	0x3a27d367	0.0006402046
21	0xb96130a5	-0.00021475794
22	0x39b4451c	0.00034383766
23	0xb9c3767e	-0.00037281582
24	0x396bdaa2	0.00022492794
25	0xb6b8559c	-5.4935936e-06
26	0xba5ad746	-0.0008348118
27	0x399f1271	0.00030340583
28	0xb9e94736	-0.0004449428
29	0x393f8146	0.00018263338
30	0x3a026a53	0.000497495
31	0xb98444ce	-0.00025228265
32	0xb8a47849	-7.842534e-05
33	0xba3f4b07	-0.0007297252
34	0xba1b12b2	-0.00059155666
35	0x3a294edf	0.0006458591
36	0xb99422b8	-0.00028254627
37	0xba248546	-0.0006275963
38	0xb9dd3abf	-0.00042196174
39	0x38ecc0fd	0.00011289304
40	0xba04016e	-0.00050356134
41	0xbab412a1	-0.0013738462
42	0xb81ee5e0	-3.7884223e-05
43	0xba52845e	-0.00080305885
44	0x390a7b88	0.00013206725
45	0xb9ead0a7	-0.00044787416
46	0x38ca6cbd	9.652365e-05
47	0xba487b7f	-0.0007647797
48	0x38a1c95f	7.7145865e-05
49	0x38564cee	5.1093222e-05
50	0x3a5c92e9	0.00084142253
51	0xb9a9615a	-0.00032306724
52	0xba4c38ec	-0.00077904644
53	0x39ecabf6	0.0004514155
54	0x3a589328	0.0008261674
55	0xb6215a69	-2.4043495e-06
56	0xba0bbeb7	-0.0005330848
57	0x39832931	0.00025016957
58	0x3a13a04e	0.0005631492
59	0xba917b20	-0.0011099316
60	0x39ffbb9a	0.00048777164
61	0x39e330ad	0.0004333308
62	0xbaee29fd	-0.0018170472
63	0xbabec61c	-0.0014554891

bn1.running_mean f4 [64]
0	0x3e426a7c	0.18985933
1	0x3dab31c2	0.083591
2	0x3f1a1d59	0.6020103
3	0x3ddd36d5	0.10801474
4	0x3e07dd14	0.13267928
5	0x3d024208	0.031801254
6	0x3ec40b95	0.38290086
7	0x3d88d687	0.06681543
8	0x3ed7a0fc	0.4211501
9	0x3d2449db	0.040109497
10	0x3ea03d70	0.31296873
11	0x3d70e843	0.058815252
12	0x3d759f69	0.05996648
13	0x3da4753b	0.080301724
14	0x3db529fc	0.088458985
15	0x3e906a8b	0.28206286
16	0x3d66a0e3	0.056305777
17	0x3d45fc95	0.048336584
18	0x3f1e6dbb	0.61886185
19	0x3cae479b	0.021274379
20	0x3dccd5c8	0.10001713
21	0x3edbfb85	0.42965332
22	0x3e77d3f8	0.24201953
23	0x3d99a6cd	0.07502518
24	0x3e390ba5	0.18070848
25	0x3e99e29e	0.30055708
26	0x3cf7ec07	0.030263914
27	0x3ec5aba2	0.38607508
28	0x3e075363	0.13215403
29	0x3dcf48dc	0.10121319
30	0x3c8ddc41	0.01731694
31	0x3e93262a	0.28740054
32	0x3d8cad60	0.06869006
33	0x3de4e42b	0.11176332
34	0x3ef1d389	0.472317
35	0x3e6763f2	0.2259672
36	0x3cb6f864	0.022335239
37	0x3de40915	0.11134545
38	0x3ef59bc8	0.47970414
39	0x3ed6d872	0.4196201
40	0x3eb63bc8	0.35592484
41	0x3c77325f	0.015087693
42	0x3e70f241	0.23529913
43	0x3c4a7b30	0.012358472
44	0x3d5fc447	0.054630544
45	0x3e314c96	0.17314371
46	0x3e1f415d	0.15552278
47	0x3e96b451	0.29434446
48	0x3e8bfcd8	0.27341342
49	0x3eca3a91	0.39497808
50	0x3acb4a6e	0.0015509853
51	0x3de1f66b	0.110333286
52	0x3e15562d	0.14583655
53	0x3d9fbae4	0.077993184
54	0x3e7b103d	0.24517913
55	0x3ea5839a	0.32326967
56	0x3c47f3d8	0.012204133
57	0x3da6418e	0.08117972
58	0x3d43c5fa	0.047796227
59	0x3e1b4e51	0.15166594
60	0x3daf7ba4	0.085685045
61	0x3d28cfc1	0.041213755
62	0x3dbf1266	0.09329681
63	0x3e609a73	0.21933918

bn1.running_var f4 [64]
0	0x3d1a1ffd	0.037628163
1	0x3becff21	0.007232562
2	0x3ecced48	0.4002478
3	0x3bf868c8	0.0075808503
4	0x3c9fd4a8	0.019510582
5	0x3ac83ca0	0.0015276857
6	0x3d8aa50e	0.06769763
7	0x3ba0cb55	0.0049070516
8	0x3d8c9271	0.06863869
9	0x3a371bde	0.00069850485
10	0x3d8c5bf6	0.06853478
11	0x3c00269a	0.007821703
12	0x3bc97802	0.0061483392
13	0x3c78d4f2	0.015187489
14	0x3c5ace3b	0.013354833
15	0x3d263194	0.040574625
16	0x3b8eb4b7	0.004355039
17	0x3b1efb4e	0.0024258676
18	0x3eb1c1c7	0.34718153
19	0x3aa26a87	0.0012391367
20	0x3c15c34b	0.0091408
21	0x3e01dbce	0.12681505
22	0x3c8396f3	0.01606319
23	0x3c942fa1	0.018089117
24	0x3d397e3e	0.04528641
25	0x3d546a6e	0.05185931
26	0x3a2afeca	0.0006522952
27	0x3d8effbb	0.069823705
28	0x3bee34d0	0.0072694793
29	0x3bf60416	0.0075078113
30	0x3b1f2606	0.0024284138
31	0x3d6c6660	0.05771482
32	0x3bdc605a	0.006725353
33	0x3c14a2e6	0.009072041
34	0x3d935c26	0.0719531
35	0x3cba1431	0.022714706
36	0x3a3b4c18	0.0007144823
37	0x3c3e3d3b	0.011611278
38	0x3ea097a9	0.31365708
39	0x3da54e0f	0.08071529
40	0x3d6bf4df	0.057606574
41	0x3a4de2a6	0.00078539026
42	0x3d1be4d7	0.038060036
43	0x3aaeaaa2	0.0013325999
44	0x3bf6a9c8	0.0075275637
45	0x3c209e5e	0.009803383
46	0x3c61b595	0.013776203
47	0x3e0043ea	0.12525907
48	0x3d687672	0.056753583
49	0x3dbf0b94	0.0932838
50	0x37faab04	2.9881958e-05
51	0x3bb4b5f6	0.0055148555
52	0x3cd9e910	0.02660039
53	0x3c0768cc	0.008264732
54	0x3cd68b0e	0.026189353
55	0x3d9a7f8f	0.07543861
56	0x3a4ad8a3	0.000773797
57	0x3c3b1463	0.011418435
58	0x3b915f01	0.004436374
59	0x3c83e699	0.016101168
60	0x3b7970bf	0.0038061587
61	0x3b8c1321	0.0042747413
62	0x3bdc9e6f	0.006732754
63	0x3dacae3a	0.084316686

deconv2.weight f4 [64, 32, 3, 3]
0	0x3ca85a59	0.020550894
1	0xbd652284	-0.05594112
2	0x3d372f13	0.044722628
3	0xbd5b9298	-0.0536066
4	0x3c1efd5e	0.009703962
5	0xbcd612b8	-0.026131973
6	0x3d526ceb	0.051373404
7	0x3c85593f	0.016277907
8	0x3d3e1654	0.046408013
9	0x3b812ea4	0.0039423276
10	0x3cd56294	0.026047982
11	0x3c62b2e2	0.013836594
12	0xbc910fea	-0.017707784
13	0xbd199d6c	-0.037503645
14	0x3cdd9f98	0.02705364
15	0xbcc53c32	-0.024076555
16	0xbcf4943a	-0.029855836
17	0x3d5952b4	0.053057387
18	0xbd4f9b4d	-0.050685216
19	0xbd5e6883	-0.05429889
20	0x3b86f1e7	0.0041181925
21	0xbd29da6f	-0.04146808
22	0xbcd01c46	-0.025404107
23	0xbc5585d3	-0.013032394
24	0x3d0d578f	0.03450733
25	0xbd1f0e5b	-0.03883205
26	0x3c91f693	0.017817771
27	0xbcca1b6b	-0.024671277
28	0xbc893c5c	-0.016752414
29	0x3d2181a8	0.03943029
30	0xbce75102	-0.02823687
31	0xbc833297	-0.016015334
32	0xbc76fa56	-0.015074333
33	0x3d43e2b1	0.04782361
34	0xbcdca32c	-0.026933275
35	0xbcb7c116	-0.022430938
36	0xbd333c40	-0.04375863
37	0x3d535fa2	0.051604874
38	0xbcf3872a	-0.029727537
39	0x3d29785f	0.04137456
40	0x3ca7b881	0.02047372
41	0xbd2f0f4d	-0.0427392
42	0x3d4ac42a	0.049503483
43	0xbbb92c1a	-0.0056510093
44	0xbc89747c	-0.016779177
45	0xbd1dbfc8	-0.038512975
46	0x3c6bbfc6	0.014388984
47	0xbd0170f9	-0.03160188
48	0x3d310ad7	0.04322323
49	0x3c5a7cdf	0.013335436
50	0xbb6ff587	-0.0036614852
51	0x3c3b61a2	0.011436852
52	0x3c2720fe	0.010200737
53	0x3c03a4c4	0.008034889
54	0x3d653c1a	0.05596552
55	0x3cbf9f96	0.023391526
56	0xbb64738b	-0.0034858908
57	0x3d287abb	0.04113267
58	0x3d4f5cd0	0.050625622
59	0x3b09c124	0.0021019662
60	0xbd1db6c5	-0.03850438
61	0x3d252656	0.040319763
62	0x3d050e8e	0.032484584
63	0x3ca1f1e5	0.019768665
64	0xbc580f31	-0.013187216
65	0x3cd4ea68	0.02599068
66	0xbd35c99c	-0.044381723
67	0xbc764398	-0.015030764
68	0x3cee1684	0.02906347
69	0xbd5207b7	-0.05127689
70	0x3ca03d4d	0.01956048
71	0x3d501ef7	0.05081078
72	0x3c993129	0.0187002
73	0x3d62edcb	0.05540256
74	0x3c735a89	0.014853128
75	0x3c618c4f	0.013766362
76	0xbd2ac39a	-0.041690446
77	0x3cdb4f49	0.026771205
78	0xbca08782	-0.019595865
79	0xbcf5fe3b	-0.030028453
80	0xbd4e0d1e	-0.05030548
81	0x3cc5eed2	0.02416173
82	0xbd574d83	-0.052564155
83	0x39db57e0	0.00041836407
84	0x3d592c18	0.053020567
85	0xbd5392ed	-0.05165379
86	0x3d1c89ea	0.038217463
87	0x3d3fd61c	0.04683505
88	0x3d4bfd9a	0.0498024
89	0xbd65af34	-0.05607529
90	0x3d187ef1	0.037230436
91	0xbca3ef49	-0.020011561
92	0x3a2bf4e1	0.0006559622
93	0x3d3bfa9b	0.045893293
94	0xbd21b7fb	-0.039482098
95	0x3d2262a7	0.039644863
96	0x3d2d715a	0.04234443
97	0x3c96b416	0.018396419
98	0x3d336347	0.04379585
99	0xbcd1a9b2	-0.025593612
100	0xbce1da14	-0.027569808
101	0xbcc88915	-0.024479428
102	0xbd64de01	-0.055875782
103	0xbcc7c3de	-0.024385389
104	0xbc193822	-0.009351762
105	0xbd66c4df	-0.056340095
106	0xbc4dc45c	-0.012559023
107	0xbb071464	-0.002061152
108	0x3ce6633c	0.02812349
109	0xbb17f415	-0.0023186256
110	0x3d1b8682	0.037970074
111	0xbd768a73	-0.06019063
112	0x3c9df0c6	0.019279849
113	0x3cea438d	0.028596664
114	0xbd57dc2b	-0.052700203
115	0x3b42800f	0.002967838
116	0x3d0cd935	0.034386832
117	0x3d16ea04	0.03684427
118	0x3d513f69	0.051085863
119	0x3bc8bc6a	0.0061259763
120	0xbcb9a0a2	-0.022659604
121	0xbbf05e6b	-0.0073354742
122	0xbba354f1	-0.004984491
123	0x3d1ba16f	0.037995752
124	0xbc0bdd65	-0.008536671
125	0x3d5dfc5f	0.054195758
126	0xbbe7c02a	-0.0070724683
127	0x3d22f05e	0.039780013
128	0xbd17d595	-0.037068922
129	0xbbde66f6	-0.0067871762
130	0xbd498287	-0.049196746
131	0xbd6d96e1	-0.058005217
132	0x3c953c4f	0.018217234
133	0x3d0309be	0.031991713
134	0xbcb4c539	-0.0220667
135	0xbba28612	-0.00495983
136	0x3d659de5	0.056058783
137	0xbd2204ba	-0.03955529
138	0xbccbd9d8	-0.02488415
139	0x3d0fa0b2	0.03506536
140	0x3bf72b68	0.007543016
141	0xbbfe7661	-0.0077655767
142	0x3c694b98	0.014239214
143	0xbd06f64a	-0.032949723
144	0x3d1ff904	0.03905584
145	0x3d6c208f	0.057648238
146	0x3b648a1c	0.0034872359
147	0xbd47a91a	-0.048745252
148	0xb9dfc0c8	-0.00042677508
149	0x3ce87594	0.028376378
150	0xba04af4f	-0.00050615234
151	0x3d46bb26	0.048518322
152	0x3c2bc842	0.010484757
153	0x3cafc20c	0.021454833
154	0xbd609ba1	-0.05483592
155	0x3cef533c	0.029214494
156	0x3c4d10ec	0.0125162415
157	0xbd68c743	-0.056830656
158	0x3c3aa616	0.011392137
159	0x3c39a80c	0.011331569
160	0x3cec7822	0.028865878
161	0xbcb45a63	-0.022015756
162	0xbd416e8a	-0.04722456
163	0xbd223319	-0.03959951
164	0x3c98322f	0.018578617
165	0x3c18b080	0.009319425
166	0xbd28c148	-0.041199952
167	0xbcf3e3f9	-0.029771792
168	0x3c9b4f62	0.018958751
169	0x3d5be9f6	0.05368992
170	0xbce2fb4b	-0.027707716
171	0xbcc62ba3	-0.02419073
172	0x3c895af3	0.016767
173	0xbca058ac	-0.019573532
174	0x3bd717a8	0.0065640993
175	0xbcdabe98	-0.02670221
176	0xbc178f84	-0.009250525
177	0x3d003029	0.03129593
178	0xbc94be22	-0.018157069
179	0xbd6d10e9	-0.057877455
180	0xbd57974a	-0.052634515
181	0x3d36d530	0.044636905
182	0x3c480c4a	0.012209961
183	0xbcc2f578	-0.02379869
184	0x3d3d2cd4	0.04618533
185	0x3c9e4b79	0.019323098
186	0xbc7d7829	-0.015470543
187	0xbccb1f41	-0.024795176
188	0x3d4a967a	0.049459912
189	0x3ca29399	0.01984577
190	0xbd644ec5	-0.055739183
191	0x3d18531a	0.037188627
192	0xbd63ada2	-0.05558551
193	0x3ca26ddb	0.019827774
194	0xbd33ed3f	-0.043927427
195	0x3ca7d6e7	0.020488216
196	0xbd49ad9b	-0.04923783
197	0xbcbe9ac1	-0.023267152
198	0xbbdc2079	-0.006717738
199	0xbd63c0b0	-0.055603683
200	0xbd1ef2a9	-0.038805638
201	0x3c25e009	0.010124215
202	0x3cb4fb13	0.022092378
203	0x3b95d1dd	0.004572137
204	0x3bf76c62	0.007550762
205	0xbd36cf31	-0.044631187
206	0xbc10be12	-0.008834379
207	0xbd18589a	-0.037193872
208	0x3c3aa31b	0.011391426
209	0xbc31c999	-0.010851287
210	0xbcb1356e	-0.021631923
211	0xbc32ce57	-0.010913453
212	0xbccb28aa	-0.024799664
213	0x3c86ccc9	0.016455071
214	0x3c9e4729	0.019321041
215	0x3aa440e5	0.0012531547
216	0x3d074d39	0.03303263
217	0xbd6f15f3	-0.05837054
218	0xbc799d0a	-0.015235195
219	0xbc1fb8dc	-0.009748664
220	0x3d13c4e6	0.03607645
221	0xbcbcc4ed	-0.02304312
222	0xbc96144c	-0.018320225
223	0xbd3faa92	-0.046793528
224	0xbb184778	-0.0023235958
225	0x3cf1b45f	0.029504953
226	0xbba05f57	-0.004894178
227	0xbca54521	-0.020174565
228	0x3cca5386	0.02469803
229	0xbca4e5de	-0.02012914
230	0x3d47add5	0.048749764
231	0xbc8ea3fd	-0.01741218
232	0x3d0c3d1c	0.034237966
233	0xbcc9ebd4	-0.024648584
234	0xbbcbdd86	-0.006221476
235	0xbae8f68d	-0.0017773673
236	0x3c8c05ff	0.017092703
237	0xbcb5cf46	-0.022193562
238	0x3ce53a46	0.027981889
239	0xbd4731fc	-0.048631653
240	0x3d5f1d5b	0.054471355
241	0xbd435eac	-0.047697708
242	0x3d0db28c	0.034594104
243	0x3d15a42f	0.03653353
244	0xbd4fb41e	-0.050708883
245	0x3c78ba68	0.015181161
246	0x3ce2593a	0.027630437
247	0x3d1c47d1	0.038154427
248	0x3cba8a14	0.022770919
249	0xbd1581ad	-0.03650062
250	0x3c826955	0.015919367
251	0x3d49c3cb	0.04925899
252	0x3b69663d	0.0035613917
253	0x3d546160	0.051850677
254	0xbc77b04a	-0.015117714
255	0xbd673f3a	-0.056456782

deconv2.bias f4 [32]
0	0x3d3e24cf	0.046421822
1	0xbd44bda8	-0.048032433
2	0xbd67dc14	-0.056606367
3	0xbd140e3c	-0.036146387
4	0xbc8fa43d	-0.01753437
5	0xbd67fd69	-0.056638155
6	0x3ccf2832	0.025287721
7	0x3d0829e4	0.033243075
8	0xbd33f845	-0.04393794
9	0x3d034622	0.032049306
10	0x3c41c561	0.011826844
11	0xbc68124a	-0.014164517
12	0x3cc71c03	0.02430535
13	0xbbb2c005	-0.0054550194
14	0xbd383538	-0.04497263
15	0xbd63b5b9	-0.055593226
16	0xbd5d65dc	-0.05405222
17	0xbd306521	-0.043065194
18	0xbd3b36bf	-0.045706507
19	0x3caac742	0.020846967
20	0x3d349fd1	0.044097725
21	0xbd0e884b	-0.034797948
22	0x3b1ea72f	0.0024208536
23	0x3c9bf477	0.019037468
24	0x3d6c6ed6	0.05772289
25	0xbd7fbb2a	-0.062434353
26	0xbbd67daa	-0.006545742
27	0x3c3f662b	0.011682074
28	0x3d478a82	0.048716076
29	0x3c7aa44d	0.015297961
30	0x3d570571	0.052495424
31	0xbca749a2	-0.020420853
